MainApp/app/src/main/ml/s_model.tflite (tflite, 693896 bytes, 26 tensors)

sequential_2/lstm_2/TensorArrayV2_1 f4 [33, 1, 128]
00000000: 0000 0000 0000 0000 0000 0000 0000 0000
00000010: 0000 0000 0000 0000 0000 0000 0000 0000
00000020: 0000 0000 0000 0000 0000 0000 0000 0000
00000030: 0000 0000 0000 0000 0000 0000 0000 0000
00000040: 0000 0000 0000 0000 0000 0000 0000 0000
00000050: 0000 0000 0000 0000 0000 0000 0000 0000
00000060: 0000 0000 0000 0000 0000 0000 0000 0000
00000070: 0000 0000 0000 0000 0000 0000 0000 0000
00000080: 0000 0000 0000 0000 0000 0000 0000 0000
00000090: 0000 0000 0000 0000 0000 0000 0000 0000
000000a0: 0000 0000 0000 0000 0000 0000 0000 0000
000000b0: 0000 0000 0000 0000 0000 0000 0000 0000
000000c0: 0000 0000 0000 0000 0000 0000 0000 0000
000000d0: 0000 0000 0000 0000 0000 0000 0000 0000
000000e0: 0000 0000 0000 0000 0000 0000 0000 0000
000000f0: 0000 0000 0000 0000 0000 0000 0000 0000
00000100: 0000 0000 0000 0000 0000 0000 0000 0000
00000110: 0000 0000 0000 0000 0000 0000 0000 0000
00000120: 0000 0000 0000 0000 0000 0000 0000 0000
00000130: 0000 0000 0000 0000 0000 0000 0000 0000
00000140: 0000 0000 0000 0000 0000 0000 0000 0000
00000150: 0000 0000 0000 0000 0000 0000 0000 0000
00000160: 0000 0000 0000 0000 0000 0000 0000 0000
00000170: 0000 0000 0000 0000 0000 0000 0000 0000
00000180: 0000 0000 0000 0000 0000 0000 0000 0000
00000190: 0000 0000 0000 0000 0000 0000 0000 0000
000001a0: 0000 0000 0000 0000 0000 0000 0000 0000
000001b0: 0000 0000 0000 0000 0000 0000 0000 0000
000001c0: 0000 0000 0000 0000 0000 0000 0000 0000
000001d0: 0000 0000 0000 0000 0000 0000 0000 0000
000001e0: 0000 0000 0000 0000 0000 0000 0000 0000
000001f0: 0000 0000 0000 0000 0000 0000 0000 0000
00000200: 0000 0000 0000 0000 0000 0000 0000 0000
00000210: 0000 0000 0000 0000 0000 0000 0000 0000
00000220: 0000 0000 0000 0000 0000 0000 0000 0000
00000230: 0000 0000 0000 0000 0000 0000 0000 0000
00000240: 0000 0000 0000 0000 0000 0000 0000 0000
00000250: 0000 0000 0000 0000 0000 0000 0000 0000
00000260: 0000 0000 0000 0000 0000 0000 0000 0000
00000270: 0000 0000 0000 0000 0000 0000 0000 0000
00000280: 0000 0000 0000 0000 0000 0000 0000 0000
00000290: 0000 0000 0000 0000 0000 0000 0000 0000
000002a0: 0000 0000 0000 0000 0000 0000 0000 0000
000002b0: 0000 0000 0000 0000 0000 0000 0000 0000
000002c0: 0000 0000 0000 0000 0000 0000 0000 0000
000002d0: 0000 0000 0000 0000 0000 0000 0000 0000
000002e0: 0000 0000 0000 0000 0000 0000 0000 0000
000002f0: 0000 0000 0000 0000 0000 0000 0000 0000
00000300: 0000 0000 0000 0000 0000 0000 0000 0000
00000310: 0000 0000 0000 0000 0000 0000 0000 0000
00000320: 0000 0000 0000 0000 0000 0000 0000 0000
00000330: 0000 0000 0000 0000 0000 0000 0000 0000
00000340: 0000 0000 0000 0000 0000 0000 0000 0000
00000350: 0000 0000 0000 0000 0000 0000 0000 0000
00000360: 0000 0000 0000 0000 0000 0000 0000 0000
00000370: 0000 0000 0000 0000 0000 0000 0000 0000
00000380: 0000 0000 0000 0000 0000 0000 0000 0000
00000390: 0000 0000 0000 0000 0000 0000 0000 0000
000003a0: 0000 0000 0000 0000 0000 0000 0000 0000
000003b0: 0000 0000 0000 0000 0000 0000 0000 0000
000003c0: 0000 0000 0000 0000 0000 0000 0000 0000
000003d0: 0000 0000 0000 0000 0000 0000 0000 0000
000003e0: 0000 0000 0000 0000 0000 0000 0000 0000
000003f0: 0000 0000 0000 0000 0000 0000 0000 0000
0.0 0.0 0.0 0.0 0.0 0.0 0.0 0.0
0.0 0.0 0.0 0.0 0.0 0.0 0.0 0.0
0.0 0.0 0.0 0.0 0.0 0.0 0.0 0.0
0.0 0.0 0.0 0.0 0.0 0.0 0.0 0.0
0.0 0.0 0.0 0.0 0.0 0.0 0.0 0.0
0.0 0.0 0.0 0.0 0.0 0.0 0.0 0.0
0.0 0.0 0.0 0.0 0.0 0.0 0.0 0.0
0.0 0.0 0.0 0.0 0.0 0.0 0.0 0.0
0.0 0.0 0.0 0.0 0.0 0.0 0.0 0.0
0.0 0.0 0.0 0.0 0.0 0.0 0.0 0.0
0.0 0.0 0.0 0.0 0.0 0.0 0.0 0.0
0.0 0.0 0.0 0.0 0.0 0.0 0.0 0.0
0.0 0.0 0.0 0.0 0.0 0.0 0.0 0.0
0.0 0.0 0.0 0.0 0.0 0.0 0.0 0.0
0.0 0.0 0.0 0.0 0.0 0.0 0.0 0.0
0.0 0.0 0.0 0.0 0.0 0.0 0.0 0.0
0.0 0.0 0.0 0.0 0.0 0.0 0.0 0.0
0.0 0.0 0.0 0.0 0.0 0.0 0.0 0.0
0.0 0.0 0.0 0.0 0.0 0.0 0.0 0.0
0.0 0.0 0.0 0.0 0.0 0.0 0.0 0.0
0.0 0.0 0.0 0.0 0.0 0.0 0.0 0.0
0.0 0.0 0.0 0.0 0.0 0.0 0.0 0.0
0.0 0.0 0.0 0.0 0.0 0.0 0.0 0.0
0.0 0.0 0.0 0.0 0.0 0.0 0.0 0.0
0.0 0.0 0.0 0.0 0.0 0.0 0.0 0.0
0.0 0.0 0.0 0.0 0.0 0.0 0.0 0.0
0.0 0.0 0.0 0.0 0.0 0.0 0.0 0.0
0.0 0.0 0.0 0.0 0.0 0.0 0.0 0.0
0.0 0.0 0.0 0.0 0.0 0.0 0.0 0.0
0.0 0.0 0.0 0.0 0.0 0.0 0.0 0.0
0.0 0.0 0.0 0.0 0.0 0.0 0.0 0.0
0.0 0.0 0.0 0.0 0.0 0.0 0.0 0.0

sequential_2/conv1d_4/BiasAdd/ReadVariableOp/resource f4 [32]
00000000: 25a9 6ebb 4664 45bc 5ea3 7c3a d7d9 8e3b
00000010: 17df d13c fb31 0e3b 156f 51bd a2ff 95bd
00000020: e2ba 10bd 6bd0 ae3c 50ac 72bd 09d7 7ebd
00000030: 99c6 b63c 52bc 843c 57ae 8c3c dea2 8fbd
00000040: 5111 173d 0b0f 08bc cda9 25bd 7c35 0b3b
00000050: 86dc c73c 4e9a 903b 52de 6fbd 49af 6abc
00000060: 4f22 433d fed9 163c 5a88 33bd 7c02 e3bb
00000070: c05a 773c a051 ae3c b9ba c0bc d3b7 f43c
-0.0036416736 -0.012047833 0.0009637381 0.0043594646 0.025619073 0.002169727 -0.051131327 -0.07324149
-0.035334475 0.021339616 -0.05924636 -0.062216792 0.022311496 0.01620308 0.017172975 -0.07013486
0.03688175 -0.008304368 -0.040445138 0.0021241596 0.024397146 0.004412926 -0.05856163 -0.014324018
0.04764014 0.009207247 -0.043831207 -0.0069277864 0.01509732 0.021279156 -0.023526536 0.02987281

sequential_2/conv1d_5/BiasAdd/ReadVariableOp/resource f4 [64]
00000000: b087 0cbc 51bc b2bd 69f9 ab3b 293e 44ba
00000010: 5063 c7bd cd59 2a3d 4aac 71bc fba5 adbd
00000020: 5c78 f23c f446 b1bc e3cf dcbd e1f3 c1bd
00000030: ffb5 743b b12a 85bd df53 3abd b7c9 2c3c
00000040: 9cdd 003c d906 8dbd 3415 71bd ace7 ca3c
00000050: a74a 04be 7055 86bd 7411 cfbb cc2b 9fbc
00000060: 105a bd3c 7bd6 65bd 21d7 89bd 780a 203d
00000070: 902d f9bb 657f 82bd cf1c 34bc 1eab f63b
00000080: 8d46 72bd 7ae2 05be 4506 443d 9e94 88bd
00000090: d56d 95bc fe8d d8bc 72d2 b33c 4691 e03b
000000a0: 4511 1d3d 95dc a4bd f0b2 863d 18fc 8cbd
000000b0: 118a 15bc 72e7 69bd d048 193d 4447 aebd
000000c0: f7d7 bfbc 7489 a33b 1c0a 05bd cb96 cfbd
000000d0: 8e09 a3bb dfdf 73bd 62d6 10be cb85 2ebd
000000e0: 3062 b9bc 6aa3 a03d 2f9f f4bc 13c5 57bd
000000f0: 67ae a8bd a138 91bd 4bd3 653d d2a9 b4bd
-0.008577272 -0.08727325 0.005248238 -0.0007486069 -0.09735739 0.041589547 -0.01475055 -0.08478924
0.029598407 -0.021640278 -0.10781839 -0.09470344 0.0037339923 -0.06502283 -0.045490142 0.010546139
0.007865336 -0.06886072 -0.05885811 0.024768673 -0.12919103 -0.06559265 -0.0063192192 -0.019430064
0.023114234 -0.056112748 -0.06730486 0.039072484 -0.0076043084 -0.06371955 -0.010993197 0.007527723
-0.059149314 -0.13074675 0.04785754 -0.066689715 -0.018240849 -0.026434895 0.021950934 0.0068532554
0.038346548 -0.08049885 0.06577098 -0.068840206 -0.009127156 -0.05710549 0.037422955 -0.085096866
-0.02341841 0.004990751 -0.032480344 -0.10136183 -0.0049755042 -0.059539672 -0.1414428 -0.042608064
-0.022629827 0.07843669 -0.02986106 -0.05267818 -0.082363896 -0.07090879 0.056109708 -0.08821453

sequential_2/conv1d_6/BiasAdd/ReadVariableOp/resource f4 [128]
00000000: 441d 99bc f7a3 aebc 179d b6bc 60f7 db3d
00000010: b650 34bd 0b72 90bc 24d7 2ebb e45d 0b3c
00000020: 3f22 34bc 46d0 93bd 8c38 793b 1f91 dc3c
00000030: a9ae 54bc 65a6 d3bc 200d b63c 723b 99bd
00000040: a3d6 9cbd db6e 37bd 0b85 91bd 7c6b 5ebd
00000050: eec2 8bbd d74b d7bc 8e78 4dbd 93b8 76bd
00000060: f51a 61bd 5100 0bbc ddae 5bbd ed48 6b3c
00000070: 51d7 313d 2e0c c3bd 1f58 85bd f4cb 62bc
00000080: 931b b9bd cd67 60bd 0e0d 913d 9ce9 35be
00000090: 669e dc3c 6fc7 26bd a7d6 c3bc a92e 4abd
000000a0: 489c b4bd 2bb6 cdbd 9bdb acbc 349d 6cbc
000000b0: b5f1 81bd b9a3 b1bd 39d3 2fbc cb9b 71bd
000000c0: 6415 e5bd ad45 47bd d519 2d3c 6566 e7bc
000000d0: d8f6 0ebc 1b41 163c 8c3f 91bd 780b 27bc
000000e0: 96bf 6d3c 2171 a3bd 7d06 9fbc 061d 37bd
000000f0: 9900 48bc 78f2 09bd 1ffe c5bd f1ad 84bd
00000100: 7349 10be c27a 1bbd 6457 8abd 8019 6fbd
00000110: e6c6 62bd 3d36 aa3c e289 453c 7286 c8bc
00000120: 46da c0bc c40e 213d 0515 523c b6d6 86bd
00000130: e15a 19bd c6ff 64bc 8d4d fbbd df30 f03b
00000140: 8065 a2bd 898a 863c 0882 153c 0a37 68bd
00000150: 326f cb3c 6a81 c0bc c67c 9fbd fab3 463d
00000160: 756a 55be 0cd4 c6bd 04a2 433b 0f6b 083d
00000170: 2d31 39bc e9f5 71bd 5373 31bc ca21 83bd
00000180: d7d0 213d e68b 66bd 09d2 57bc 582b ca3b
00000190: ddb5 593c bcdf ec3c 2adf a8bc dbdd 7bbd
000001a0: 07a9 623d 2b27 ed3c 5aea 21bc 14e6 afbc
000001b0: e7ff 9cbd adb3 2c3d 84a5 26bd 5b50 92bd
000001c0: c965 1a3d ce6a 09be 8a99 c5bc 51c4 e0bc
000001d0: 0289 8fbd 6d9c 0e3d e6fb 5bbd 2a6a 343d
000001e0: 30eb 2fbc 7652 8a3d 2637 94bd d8e6 a1bd
000001f0: 01c7 aabd d637 9abc b924 6ebd a4d2 f4bd
-0.018690713 -0.021318419 -0.022291703 0.107405424 -0.044022284 -0.017632505 -0.0026678527 0.008506272
-0.010994493 -0.072174594 0.003802809 0.026924668 -0.012981095 -0.025836179 0.022223055 -0.074820414
-0.07658126 -0.044783454 -0.07105454 -0.054301724 -0.06824289 -0.02628128 -0.050163798 -0.060234617
-0.05495735 -0.008483962 -0.05363356 0.014360649 0.043418232 -0.095238075 -0.065109484 -0.0138425715
-0.090384625 -0.054786492 0.07082568 -0.17764896 0.026930999 -0.04071754 -0.023906065 -0.049360905
-0.08818871 -0.100445114 -0.02110081 -0.014441777 -0.0634493 -0.08673806 -0.010731512 -0.058986466
-0.111857206 -0.048650432 0.010565241 -0.028247068 -0.008725844 0.009170796 -0.07092199 -0.010195605
0.01451101 -0.07980562 -0.019412274 -0.044705413 -0.012207174 -0.0336785 -0.096676104 -0.06478489
-0.14090519 -0.037958868 -0.0675495 -0.058373928 -0.055365466 0.020777816 0.0120568 -0.024478171
-0.02354158 0.039320722 0.012822394 -0.065839216 -0.037440185 -0.013976997 -0.12270651 0.0073300446
-0.07929516 0.01642348 0.00912524 -0.056693114 0.024833295 -0.02349921 -0.077874705 0.048511483
-0.20841391 -0.097084135 0.0029851208 0.033305224 -0.011303228 -0.05907241 -0.010830718 -0.06402929
0.039505806 -0.05628576 -0.013172635 0.0061697178 0.0132879885 0.028915279 -0.020614225 -0.061490875
0.05533698 0.02894934 -0.009882534 -0.021472014 -0.07665997 0.04216354 -0.04068519 -0.07144233
0.037694726 -0.13419649 -0.024121065 -0.027437361 -0.07008554 0.034817148 -0.053707026 0.04404656
-0.010737225 0.067540094 -0.07237081 -0.07905358 -0.08338738 -0.018825453 -0.05814049 -0.11954239

sequential_2/batch_normalization_4/batchnorm/mul f4 [32]
00000000: 86f6 b141 f3fc 8241 5feb 3941 ceec 3541
00000010: 5279 8540 aa01 5d41 792c b441 5e15 ce41
00000020: 5593 c541 6fb5 c241 a979 1041 cc0f c641
00000030: 6957 0942 74ee 0f41 98a3 7b41 72d3 3b41
00000040: fc47 fc40 cf6b ac41 4c1b 6041 1e51 e641
00000050: f5f9 1b41 9dd9 f241 e8c1 8141 c00f 6341
00000060: dd00 9e41 fbce b741 0f6a e841 4f1f 5641
00000070: d1ce 0441 c085 b741 c541 6e41 dc11 fb41
22.245373 16.37351 11.619964 11.370314 4.1710596 13.812906 22.521715 25.760433
24.69694 24.33859 9.029702 24.757713 34.33536 8.995716 15.72744 11.739122
7.883787 21.55264 14.006664 28.789608 9.748525 30.356256 16.21968 14.191345
19.750422 22.976065 29.051786 13.382644 8.300492 22.940308 14.891057 31.38372

sequential_2/batch_normalization_4/batchnorm/sub f4 [32]
00000000: 4511 d2bf b51e afbe 65bf 78c0 870c 2ac0
00000010: 9e4e 15c0 155b 47c0 d369 8abe c92c b1bc
00000020: 3612 84be e0ed afbf eeb6 2fc0 a1bb 04c0
00000030: d80b 11be cc49 a1bf 5163 1abf 7660 56c0
00000040: 58a0 35bf 9042 a7be 5082 9cbe 1b66 49bd
00000050: 9ca4 c0bf 7f29 54bc 2fc8 98be 7149 d5be
00000060: 8e28 06c0 bab6 00bf 3058 68bc d13e 13bf
00000070: 2d12 61c0 2ef5 bfbf f690 64c0 f044 6b3c
-1.641152 -0.34203115 -3.8866818 -2.6570146 -2.3329234 -3.1149342 -0.27033862 -0.0216278
-0.25795144 -1.3744469 -2.7455401 -2.073952 -0.14164674 -1.2600646 -0.60307795 -3.3496375
-0.7094779 -0.3266797 -0.3056817 -0.04916964 -1.5050235 -0.012949347 -0.29840228 -0.41657594
-2.0962253 -0.5027882 -0.014181182 -0.57517725 -3.5167344 -1.4996698 -3.5713477 0.014359698

sequential_2/batch_normalization_5/batchnorm/mul f4 [64]
00000000: 9989 4240 c9b3 b73f edf7 2d40 b0d8 ea3f
00000010: dd67 d03f 3c3d ac3f f476 fa3f 58f0 2840
00000020: 2a67 c83f bba2 0640 8a1d cc3f a9c2 1e40
00000030: 8370 ed3f f49f 1840 2c0a cb3f 5a2e 2240
00000040: c0ff 2140 4478 cb3f d248 b940 959d 0940
00000050: affb 1540 31a1 3a40 2b1b 803f 264c d03f
00000060: c3c0 2040 501f a13f bb01 df3f 2e4b 6c40
00000070: 9f09 fe3f 1c43 d23f 34b0 0240 38f5 e43f
00000080: a2b0 0240 bcd8 0540 c85e 3e40 3727 3940
00000090: 9fe6 b93f 9ffe e13f 4b1f c33f cedd 1d40
000000a0: dc9b c03f 71d9 be3f 03f8 ec3f da98 ff3f
000000b0: 5c8c 2d40 b74a 6340 7049 2b40 5d83 0240
000000c0: 9790 8c3f c963 a13f b5fb c93f 0f9e 973f
000000d0: 8369 8c3f 06e2 6840 3f00 d43f 658d 2240
000000e0: 6459 d33f d934 1c40 632a b63f 39e8 b73f
000000f0: 7db7 4d3f dc33 0b40 d037 1940 d3e1 2a40
3.0396483 1.4351741 2.7182572 1.8347378 1.6281697 1.3456187 1.9567552 2.6396694
1.5656483 2.1036823 1.5946515 2.480631 1.8549961 2.3847628 1.5862479 2.534079
2.5312347 1.5896077 5.790139 2.150243 2.3434865 2.9160883 1.0008291 1.6273239
2.5117652 1.2587681 1.7422403 3.6920886 1.9846686 1.642673 2.0420046 1.7887335
2.0420308 2.0913534 2.974535 2.8930185 1.4523505 1.7655829 1.5243925 2.466663
1.5047565 1.4910108 1.8513187 1.9968522 2.7116919 3.5514352 2.6763573 2.0392678
1.0981625 1.2608577 1.577994 1.1845111 1.09697 3.6387954 1.6562575 2.53988
1.6511655 2.4407256 1.4231685 1.4367744 0.80358106 2.1750402 2.3940315 2.6700332

sequential_2/batch_normalization_5/batchnorm/sub f4 [64]
00000000: 57c2 e6be 93c6 f0be 793e 47bf df3c 4ebf
00000010: 1691 21bf d079 78bf 0b96 edbe 3519 1fbf
00000020: 0230 20bf 92cc 35bf bbf7 bbbe 762e 14bf
00000030: ce73 31bf a0e3 54bf 4e41 32bf 753b 0ebf
00000040: e374 60bf 6a36 18bf 2267 1dbf 38c9 30bf
00000050: c539 d3be eec0 2dbf 3f85 3fbf df52 16bf
00000060: d596 5ebf 53b4 46bf ab98 1fbf 147f 21bf
00000070: 0bbc 35bf 46a8 38bf b9a9 57bf 42e9 15bf
00000080: 82f3 0dbf 4410 dabe 838c 51bf 3c10 22bf
00000090: 6f5b ffbe 0ba4 2cbf d8db 2ebf 5ea7 47bf
000000a0: 32a7 1dbf 66eb 1dbf 41ce 32bf 2137 1cbf
000000b0: 2cab 0abf a4ef 0cbf 9bed 4abf b319 1fbf
000000c0: a932 36bf a399 0dbf 3105 0abf 27d3 35bf
000000d0: 8637 28bf 332e 27bf fc49 06bf 079d 61bf
000000e0: 48b0 10bf 92e4 65bf 32c2 26bf fc29 28bf
000000f0: 3c6f f4be 45f0 06bf 5e6e 62bf 1d64 02bf
-0.45070145 -0.470265 -0.778297 -0.8056163 -0.6311201 -0.9706087 -0.46403536 -0.6214784
-0.62573254 -0.71015275 -0.3671244 -0.57883394 -0.6931733 -0.8315983 -0.696309 -0.55559474
-0.87678355 -0.5945803 -0.61485493 -0.69057035 -0.41255012 -0.6787251 -0.7481269 -0.587202
-0.869489 -0.776189 -0.6234233 -0.6308453 -0.70990056 -0.72131765 -0.8424335 -0.5855905
-0.5544969 -0.42590535 -0.8185503 -0.6330602 -0.49874446 -0.6743781 -0.68304205 -0.7798976
-0.61583245 -0.61687315 -0.6984597 -0.6102162 -0.5416744 -0.5505316 -0.7926881 -0.6214859
-0.7117105 -0.55312556 -0.5391417 -0.7102532 -0.6570972 -0.6530487 -0.5245664 -0.8813023
-0.56518984 -0.89801896 -0.6514007 -0.65689063 -0.47741115 -0.5271037 -0.88449657 -0.5093401

sequential_2/batch_normalization_6/batchnorm/mul f4 [128]
00000000: dc49 5a3f ce58 7b3f 60a6 013f b5f8 4e3f
00000010: d184 fa3e fed2 2c3f c40a 263f 53ef 1f3f
00000020: b193 1a3f b342 933f 9528 4a3f 3626 323f
00000030: 2a7f a93f bea5 a53f 13cd a23f 84c3 2f3f
00000040: e4e7 0f3f b1fa 2b3f 124d ed3e 12b0 383f
00000050: 0e31 1c3f d6e5 823f 70b7 1e3f 322f 3e3f
00000060: 3eb3 f23e afe1 1e3f 2f41 663f b4a7 3b3f
00000070: fdf1 fa3e 9c50 0f3f 14fc 433f dd4e ed3e
00000080: c29d 783f edf1 3e3f fe81 3f3f ed7e c23e
00000090: a0b1 1f3f 4076 313f 5593 023f f81f aa3f
000000a0: ab92 093f f8b1 1c3f 3908 113f c0ba 143f
000000b0: 78ab 313f d1ac c33e b21b 133f 4bc8 8f3f
000000c0: 7c86 1e3f b458 173f 0122 873f 9fe9 e63e
000000d0: cad1 1f3f b542 8d3f 5800 ef3e 6916 643f
000000e0: e2ee 263f 55ac 1e3f 2661 f53e 0f03 0c3f
000000f0: db35 9c3f 0409 303f 2d93 1e3f 50be 9a3f
00000100: f5c3 e43e 2e7a 473f ed1f 533f 0568 743f
00000110: ec62 9d3f cd1b 2b3f 79ed 2d3f 79d2 273f
00000120: 6e55 233f e311 913f 8fd1 b33f e955 de3e
00000130: 0e6d 7b3f e6c0 143f 7883 413f dd75 5b3f
00000140: b1fb 893f bb67 383f 8c63 443f 124d 203f
00000150: 1f4f 5c3f 15a7 1e3f 281e 7d3f 11fa 2a3f
00000160: 864f 253f 0d2c fc3e e7f7 e83e 7b73 b23f
00000170: 2c47 3d3f 6192 923f 817a 443f 377e 2f3f
00000180: 5861 803f c5ad 7a3f 6b19 2b3f 2d34 083f
00000190: c4ea 0f3f 4b53 7c3f 8e2a 493f 459a 043f
000001a0: 0f7c 393f a854 1d3f dc18 113f 93d1 4a3f
000001b0: 51b6 253f a423 2c3f c094 7d3f c67d 1e3f
000001c0: cb24 463f fbbe 423f 0f8d 583f efa8 203f
000001d0: c1b3 933f bd1e 5b3f 75dc 023f 2b8b 4d3f
000001e0: cdc7 253f c395 223f b8b8 e13e 1b3b 683f
000001f0: 24d1 663f 05a5 153f 5a2c 4e3f 4004 1e3f
0.8526895 0.9818238 0.50644493 0.80848247 0.48929456 0.6750945 0.6486018 0.62474555
0.6038161 1.150473 0.78968173 0.69589555 1.3241932 1.2941206 1.2718834 0.6865771
0.5621321 0.671794 0.46347862 0.7214366 0.6101235 1.022639 0.61998653 0.74290764
0.47402376 0.62063116 0.8994321 0.7330277 0.49012747 0.55982375 0.76556516 0.4634923
0.9711572 0.745879 0.7480773 0.37987462 0.6238041 0.6932106 0.5100606 1.3291006
0.5373942 0.6120906 0.5665317 0.5809746 0.69402266 0.38217786 0.57464135 1.1233
0.61923957 0.59119725 1.0557252 0.45100114 0.6242949 1.1035982 0.4667995 0.89096695
0.65208256 0.6198171 0.4792568 0.5469217 1.2203935 0.68763757 0.6194332 1.2089329
0.44680753 0.77920806 0.8247059 0.9547122 1.2295814 0.66839296 0.6794048 0.6555553
0.6380223 1.1333584 1.4048327 0.4342492 0.9821328 0.5810684 0.7559123 0.8572672
1.0779935 0.7203328 0.76714396 0.626176 0.8605823 0.61973697 0.9887414 0.6678782
0.6457447 0.49252358 0.45501634 1.3941492 0.73936725 1.1450921 0.76749426 0.68551964
1.0029707 0.979214 0.6683566 0.53204614 0.562176 0.98564595 0.7858056 0.51797897
0.72454923 0.614573 0.5667856 0.79226035 0.6473132 0.67241883 0.990551 0.61910665
0.7739989 0.76072663 0.8459024 0.6275777 1.1539232 0.8559378 0.5111764 0.8029048
0.64757997 0.6350977 0.44086242 0.9071519 0.90162873 0.58454925 0.80536425 0.61725235

sequential_2/batch_normalization_6/batchnorm/sub f4 [128]
00000000: 27ff 30bf 119b 5abf c14c 05bf e1b9 74bf
00000010: f386 1ebf b53b 19bf 6472 40bf 98fa 16bf
00000020: 2360 19bf 3fb9 2fbf 1643 3dbf 56cc 0fbf
00000030: 147a 2dbf 4625 65bf 0aa7 32bf aca1 37bf
00000040: cfc1 edbe ab3f f9be 500e 01bf 0f22 3bbf
00000050: 208f 2abf 50df 3cbf 9795 36bf 1adc 3abf
00000060: 99c8 1cbf 4b13 19bf a36c f3be 1f0f 31bf
00000070: 7bf4 17bf 0370 ddbe 8ffb 28bf f050 f5be
00000080: e647 11bf 61ba 3dbf 9a24 42bf 8c6d fdbe
00000090: 7c12 65bf 1805 03bf 7b25 06bf 99fe 80bf
000000a0: 7078 0bbf e89f 05bf e7e1 1bbf 9fec 2cbf
000000b0: fac2 14bf f237 10bf 6f5d 20bf 01ec 29bf
000000c0: 5a0f 04bf a277 14bf 10f4 3dbf 713b 19bf
000000d0: b8bc 15bf 250a 71bf 7b59 ecbe 0b2c 48bf
000000e0: ea69 1fbf 8849 0bbf c447 1abf 3196 13bf
000000f0: ce0d 27bf 7670 29bf c05b 08bf 5900 02bf
00000100: c4d1 13bf c3e8 24bf df0a 20bf 5d15 28bf
00000110: 5d9c 3fbf b7cb 2dbf a821 29bf 9ebc 13bf
00000120: a4bc 25bf 5eba 33bf 4190 2fbf 08a7 19bf
00000130: 1c89 36bf f4f3 3dbf a323 26bf bb9a 4fbf
00000140: 1447 29bf 9400 6cbf 2013 37bf ea19 12bf
00000150: 8ef0 2bbf 29f0 1ebf 6497 08bf 6ae8 31bf
00000160: 1990 10bf ea45 08bf b6a6 17bf b27f 2fbf
00000170: 98d9 4dbf 7f3f 39bf b87e 3fbf 83ec 24bf
00000180: 32e6 4ebf a6ac 1bbf 1c0c 1fbf b782 27bf
00000190: 4ab2 27bf 809e 59bf 40e4 28bf d774 0abf
000001a0: 37cf 5dbf 5a65 25bf 44af fbbe 6a79 27bf
000001b0: c9a4 14bf 88bc 39bf f780 17bf 2756 01bf
000001c0: 1a55 1ebf 2be5 efbe 14cc 1fbf 8b43 3fbf
000001d0: 169e 2bbf 1a35 6dbf ca00 16bf 28f7 5abf
000001e0: af6b 18bf 7f8e 3abf 7f46 24bf 3b53 dbbe
000001f0: a311 0bbf de85 23bf 0520 d8be a451 09bf
-0.6913933 -0.8539286 -0.5207024 -0.9559613 -0.61924666 -0.5985673 -0.75174546 -0.58976126
-0.5991232 -0.6864204 -0.7393049 -0.56171167 -0.677644 -0.8951 -0.6978613 -0.71731067
-0.46436927 -0.48681387 -0.50412464 -0.73098844 -0.6662464 -0.7377825 -0.71322006 -0.729921
-0.6124359 -0.59795064 -0.4754382 -0.691637 -0.5935742 -0.4324952 -0.6600885 -0.47913313
-0.56750333 -0.74112517 -0.758371 -0.4949764 -0.8948133 -0.5117965 -0.5240094 -1.0077697
-0.5448065 -0.5219712 -0.60891575 -0.67548555 -0.5811001 -0.56335366 -0.6264257 -0.6637574
-0.51585925 -0.57995045 -0.74200535 -0.59856325 -0.58491087 -0.94156104 -0.46162018 -0.78192204
-0.6227099 -0.54409075 -0.60265756 -0.5765105 -0.6525544 -0.66187227 -0.53265 -0.5078178
-0.5774195 -0.64417666 -0.6251659 -0.656576 -0.74847966 -0.6788897 -0.6606698 -0.5770968
-0.6474097 -0.7020625 -0.6857949 -0.60020494 -0.7130296 -0.7420037 -0.6489813 -0.81095475
-0.6612408 -0.9218838 -0.7151356 -0.5707079 -0.6716393 -0.62085205 -0.53356004 -0.6949526
-0.56469876 -0.5323168 -0.59238756 -0.6855422 -0.80410147 -0.7236251 -0.7480273 -0.6442339
-0.8082 -0.60810316 -0.6212785 -0.6543383 -0.6550642 -0.85007477 -0.6597328 -0.54084533
-0.8664431 -0.64607775 -0.49157155 -0.6541964 -0.5806394 -0.725533 -0.5918116 -0.50522083
-0.61848605 -0.4685453 -0.62420774 -0.7471244 -0.67038095 -0.9265915 -0.58594954 -0.8553338
-0.5953931 -0.7287368 -0.6417007 -0.42836937 -0.54323786 -0.6387614 -0.4221193 -0.536402

sequential_2/dense_2/MatMul f4 [1, 128]
00000000: 0a25 0c3e 7ae0 ba3d 6fc7 15be 92fa 233d
00000010: 6617 e03d c2a3 a7bc 692d 1ebe ff40 173e
00000020: 0978 4bbe 66da 12bd e386 eabd 5345 553c
00000030: 31ca 18be 50b0 a5bd d269 103e b235 c5bd
00000040: c0e0 883d b1e0 003e fa17 133e 057b 853d
00000050: 1aa5 02bd c70c 383e a85a 803d b996 1fbe
00000060: 0098 aabd 0207 363e e6f3 233d fae9 f53d
00000070: 65ba be3c 8416 833d 7281 b53d 7ce3 26be
00000080: d221 dc3c e2d7 14be d0f6 a93d 08f4 a13d
00000090: 1a1a 663c c91f 96bc 35f1 033e bb4d a93d
000000a0: a3aa 81bd 3714 943d 1eaa 073e f6b3 0c3e
000000b0: 3cab c73d d72f c33d b900 09be 89fd ca3d
000000c0: 659b 143e 5f37 06be 350a fb3d 9ae5 263d
000000d0: d2bf 1ebe 639e dfbd 6f6d 10bc 787d 02be
000000e0: fdc7 b93d 8f1a 333e b23a 33be e2cb 10be
000000f0: eb81 0a3e eb34 cf3d 5e80 de3d 42e2 263e
00000100: cec8 fdbd b538 23bc 9591 56be 7aca 8b3d
00000110: 0495 643d 4cc8 8dbd a44b c63d ea5d 2ebe
00000120: 22a3 f3bd 6824 263e b45f d9bd 54ef 2e3e
00000130: b091 533d c6fc 6c3d c5ed ecbd 35cc 733c
00000140: d468 433e 7c14 da3d 4252 0f3e aefe 2c3d
00000150: 1f1e 453c 8f38 9c3d 45a5 d03d 594b 4fbe
00000160: 7fbb 9f3d 6581 89bd 29b8 bdbc d0ac 20be
00000170: 6f1e 733e 7223 b1bd 6606 7fbd bc93 16be
00000180: b452 043e fee2 273e 1c27 87bd 1a74 06be
00000190: 938a a6bd 7017 b8bd 5c63 a7bd d922 4d3e
000001a0: 6803 b1bd 776b bf3d 4f74 38be ef1a 103e
000001b0: 5d24 66bd 308d 25bd b9af 23be 77a1 b83d
000001c0: 8414 043e 4bc6 283e a189 2d3d d689 25be
000001d0: fb75 6d3d 9ed9 31be fd35 8a3b 4ffb 01be
000001e0: 2663 203e 6734 403e 6722 87be 21a9 8f3d
000001f0: 52b6 023e 6bcd bc3d 99be 7c3d 085c 81bd
0.13686004 0.09124847 -0.14626859 0.040033884 0.10941963 -0.020463828 -0.1544701 0.14770888
-0.19870009 -0.035852812 -0.11451509 0.013017016 -0.1492088 -0.080902696 0.14102867 -0.09629382
0.06683493 0.12585713 0.14364615 0.06517605 -0.031895734 0.17973624 0.06267291 -0.1558484
-0.08329773 0.17776111 0.04002752 0.12007518 0.02328224 0.06400779 0.0886258 -0.16297716
0.026871596 -0.14535478 0.08299029 0.079078734 0.014044309 -0.018325703 0.12884982 0.08266779
-0.063313745 0.07230418 0.13248488 0.13740525 0.09749457 0.09530609 -0.13379182 0.09911639
0.14512403 -0.1310706 0.12257806 0.04074631 -0.15502861 -0.10918882 -0.0088151535 -0.12743175
0.09071348 0.174906 -0.17502859 -0.14140275 0.13526122 0.10117515 0.10864328 0.16297248
-0.12391816 -0.0099622505 -0.20953973 0.06825729 0.055806175 -0.06922969 0.09682396 -0.17028013
-0.118963495 0.16224825 -0.10613957 0.17083484 0.05165261 0.05785825 -0.115687884 0.01488023
0.19082958 0.10648438 0.13996223 0.04223507 0.012031107 0.07627975 0.10187773 -0.20243587
0.07799434 -0.06714133 -0.023159103 -0.15690923 0.23742078 -0.08649339 -0.06226196 -0.14704794
0.12922174 0.16395184 -0.065992564 -0.13130227 -0.081319 -0.08988845 -0.08173248 0.20032825
-0.08643228 0.09346669 -0.18013118 0.14072774 -0.056187022 -0.04041785 -0.15985002 0.09015172
0.12898451 0.16481893 0.04236758 -0.16165861 0.057973843 -0.1736817 0.0042178617 -0.12693523
0.15662822 0.1876999 -0.26393434 0.07014681 0.12764862 0.09218868 0.061705206 -0.06316382

sequential_2/conv1d_4/conv1d f4 [32, 1, 5, 3]
00000000: 2efa 143e ad2b f4bd 35b3 6a3e 66e2 d4bd
00000010: a974 b93d 85c5 cabd 6bdf 8bbd 3237 173e
00000020: 743e f9bc 5714 0d3e 936e b23c 4463 fbbd
00000030: fd9a b6bd 04a7 2cbd 5a6f 33bd c6b7 8ebc
00000040: 78ba 96bd 787f dcbd 2d9c d63d fed3 233d
00000050: 19a0 323e 2e41 86bc e6a7 a8bd f40b bdbd
00000060: 387d 22be bcc3 0abe 6801 09bd ee41 173e
00000070: 7be6 58bc 4cfe 10be 2886 6abc ba45 163e
00000080: a7b8 5abd 9f5b da3d 8dda 1f3e 59a7 c4bc
00000090: 507b 94bc c2a7 593e 7838 2c3c 2ff8 f83d
000000a0: 9424 c2bd ada8 22be a97d 0dbe 5d13 43bc
000000b0: beb7 813d d379 163d 2775 edbc 7157 23bd
000000c0: aefc 813d 0f89 8a3d e1b5 853d 8bda d33d
000000d0: a1dc 1e3e 8855 3bbd fdf9 523c 044d ce3d
000000e0: c809 153e 377a 29be f6fd 5a3c 6301 3dbe
000000f0: ac4a a6bc cba3 5e3e cfe8 5bbd 7cba 9c3d
00000100: 05ae 0e3e ab51 523d 882b 91bb 4509 533e
00000110: ca80 76bd c856 c6bc b9e6 0e3d 8666 3f3e
00000120: fc97 a53d 0541 823e 0b78 46bd 061e d6bd
00000130: 9646 dabd 1dcb ed3a 2387 913b f57e dcbd
00000140: a00d 05be 96a6 0cbe 0ef3 173e b9cb d93d
00000150: 8f0e b2bc 5a08 ea3d c613 133e efaa 8a3d
00000160: 99a6 053e ff1b 32be 2eef 95bc a49a 1a3e
00000170: 1930 ea3d abc8 163e b855 af3d 0e22 d7bd
00000180: 4fd7 d73d 04a6 05be b096 19be 3d8e d13d
00000190: e21e 0e3e 774a 0fbc 1013 9c3d 02f6 cabd
000001a0: 7e1c eb3d 194e e03d f745 10be 56d3 343e
000001b0: cec2 1e3e 9905 17bc a418 033e 4600 cc3d
000001c0: c381 dc3c 14e3 09bd 24cb b43d 812a 4ebd
000001d0: 18d2 8abd 0186 973d b39b 8fbc d57b e5bc
000001e0: 12b0 77bd ba15 b2bd 1338 c63d 28db d33d
000001f0: ecbe 81bd ed9d 1bbe accd 643d 0bca 693d
00000200: bc42 27be 1fae 5abb 14d9 f73d a756 b7bd
00000210: a070 433c d1d5 90bd 31a9 523e eb5b 28be
00000220: 4dc8 7dbe 01c0 633c 2838 2a3e 0edb a73d
00000230: 46d3 e9bd ce2d 0abe cf62 073e aa20 3dbd
00000240: fef3 babc c628 efbd a7d7 0a3e a1d0 333e
00000250: 41c8 4c3e a9b1 0e3d 8594 1dbd dc64 603e
00000260: 25e0 0d3e d656 8e3d 473e 1a3e 72bd fc3c
00000270: bb8f 3bbe fff8 e8bd 4af2 b7bd 20f9 b3bd
00000280: 15a8 333d cc58 eebd 5df7 56be b430 fb3c
00000290: af54 c53d a9e3 9bbd f931 29be a638 b3bd
000002a0: c096 183e 425a f73d 2e79 11be ad0e 93bc
000002b0: 93e1 fc3d 7c42 32bd 51b9 2ebc 427e dd3d
000002c0: d9f3 2e3e f157 5dbd ad93 12bc a734 043d
000002d0: 8fc8 c33d 2f56 12be 367c 8b3d ff9b d43d
000002e0: 0736 5d3e 078f 523e a937 1b3e 085e 18bd
000002f0: 81ba fe3c 8af8 0cbe 91a2 fabd 4fd7 b0bd
00000300: 058a da3b bb3b 07be 0533 cf3c 5154 593e
00000310: 8b3c 373e c8c6 36bd 74c9 103d 3a84 ea3d
00000320: 4d3d e2bd 3154 163e 7df0 023e fa26 773d
00000330: 722d 623d 0038 e5bd 8cef 3b3c 64ea cc3d
00000340: 99d3 d1ba 7c13 7abd 1dde 093e fd52 273e
00000350: 512e f43d 2e3e 8e3d 0990 7cbd 7521 dbbc
00000360: c558 253e 15c4 9fbc 3056 d9bd 63ce 053b
00000370: abf9 babd bd68 d93d 0705 6bbd 4cac 1d3e
00000380: 8a98 fe3d 0c30 3abd aedd e6bd e20a 31bd
00000390: c5de 2bbe 317d bf3d 11de cabd 97cb 123d
000003a0: b949 5b3d 4d94 57bd c6ff 88bd 55fa 093e
000003b0: a7c3 76bc d365 eebd a0a6 733c fcef 0ebd
000003c0: 73d2 273c ec04 21be 7bd0 53be b28a 9a3c
000003d0: 3442 0a3e 3b1c 683d cae0 32be d945 33be
000003e0: 3d89 f9bd 5549 14be da83 87bd f8f4 7abd
000003f0: 97ac 7bbd 8b87 aebd 7d87 033d 2b4b 9cbd
0.14548561 -0.11922393 0.22919925 -0.103947446 0.09055454 -0.09900955 -0.06829723 0.14767149
-0.030425288 0.1377729 0.021781242 -0.12274793 -0.089162804 -0.042151466 -0.043807365 -0.017421614
-0.07359785 -0.107665 0.10479007 0.039997093 0.17443885 -0.016388502 -0.08235149 -0.092307955
-0.1586808 -0.13551229 -0.033448607 0.14771244 -0.013238545 -0.14159507 -0.014314212 0.14675036
-0.053398754 0.106620066 0.15610714 -0.024005579 -0.018125206 0.21255401 0.01051151 0.12156712
-0.09479633 -0.15884657 -0.13817467 -0.011906472 0.06333874 0.036737274 -0.028986527 -0.039878312
0.06347023 0.06764423 0.06528831 0.10344418 0.15513851 -0.045735866 0.012876985 0.10073283
0.14554513 -0.16550528 0.013366213 -0.1845756 -0.020299278 0.2174217 -0.05368882 0.076527566
0.1393357 0.051347416 -0.004430238 0.20609005 -0.060181417 -0.024211302 0.034888003 0.18691453
0.08085629 0.2544023 -0.048454326 -0.10454945 -0.106579944 0.0018142198 0.0044411584 -0.10766403
-0.12993479 -0.13735422 0.14838812 0.1063456 -0.021735458 0.11427374 0.14363012 0.06770884
0.13051833 -0.17393492 -0.018302526 0.15098053 0.11434955 0.14724986 0.085612714 -0.10504542
0.10539114 -0.13051611 -0.14998889 0.10232208 0.13878968 -0.008745781 0.076208234 -0.099102035
0.11480044 0.10952396 -0.1408919 0.17658743 0.15504 -0.009217643 0.12802368 0.0996099
0.026917344 -0.033663824 0.088278085 -0.050333504 -0.067783535 0.07398606 -0.017530298 -0.02801315
-0.060470648 -0.0869555 0.09678664 0.10344535 -0.063352436 -0.15196963 0.055860206 0.05707745
-0.16334051 -0.0033367944 0.12101951 -0.089520745 0.011928707 -0.07072032 0.20572354 -0.16441314
-0.2478344 0.013900758 0.16622984 0.08196078 -0.1141725 -0.13494036 0.13221286 -0.04617373
-0.022821423 -0.11677699 0.13558827 0.17560054 0.19998266 0.0348374 -0.038471717 0.21913475
0.13855036 0.069501564 0.1506282 0.030852053 -0.18316548 -0.11375617 -0.0898176 -0.08787751
0.043861467 -0.116380304 -0.20992799 0.030662872 0.09635293 -0.07611782 -0.1652297 -0.08751039
0.14901257 0.12077762 -0.14206383 -0.017951334 0.12347712 -0.043520436 -0.0106643 0.108150974
0.17085208 -0.054038946 -0.008946341 0.032276776 0.09559738 -0.14290689 0.06810801 0.103813164
0.21602641 0.20562373 0.15157951 -0.03719905 0.031094791 -0.13766685 -0.12238038 -0.08634817
0.0066692852 -0.13206379 0.025292883 0.2122357 0.17894189 -0.044623166 0.03534837 0.114510015
-0.110468484 0.14680554 0.12787051 0.060339905 0.05521912 -0.11192322 0.011470687 0.10005644
-0.0016008496 -0.061053738 0.13463636 0.16340251 0.11922897 0.069454536 -0.0616608 -0.026749352
0.16147144 -0.019502679 -0.10612142 0.0020417206 -0.09129652 0.1061568 -0.05737784 0.15397757
0.12431438 -0.045455977 -0.11272751 -0.04322327 -0.16784199 0.0935005 -0.09905637 0.03583869
0.053537104 -0.052631665 -0.0668941 0.134744 -0.015061296 -0.11640515 0.014871269 -0.034896836
0.010243046 -0.15724534 -0.20684998 0.018864963 0.13501817 0.056667548 -0.17468563 -0.17507114
-0.12184379 -0.14481099 -0.066169456 -0.061268777 -0.06144389 -0.085219465 0.032111634 -0.07631525

sequential_2/conv1d_5/conv1d f4 [64, 1, 3, 32]
00000000: 2f7c e5bd d244 06bd 81c6 2b3c e960 a23c
00000010: 022e 8f3c 0390 033e cd5b 32bd 9ac7 633d
00000020: f656 acbd 6c3a 073e 8a96 143c 5760 523e
00000030: b459 64bd 6e26 99bd 5797 78bd 4985 97bd
00000040: 9c90 36bd a42d 123e 39c4 033d 1331 9e3d
00000050: 2996 16bd 19b4 b53c e245 f53c 7e96 143e
00000060: f829 21bc eb22 e6bd 7f9f e73d 5aef c53d
00000070: 97e9 f23d 3853 1c3d 2822 e5bc 2140 0abd
00000080: e04b 06bd 20d9 bb3a 1e84 003e 2075 84bd
00000090: 97c0 2a3b f01d af3d b6e5 c8bd 19f8 a8bd
000000a0: 4956 10bd e15c 89bd 0636 c63d 67ba 0bbc
000000b0: 7a2b b83d e455 d1bd e017 b73d f8e3 1b3d
000000c0: 21d8 72bd 71e9 853d 9dc3 ae3d c269 3e3e
000000d0: e10f 4abd d868 cdbd f6f4 783d c40c 7cbd
000000e0: e362 a1bd a805 533d 370a 843d f5cc e5bc
000000f0: 0ceb 64bd 4549 e83d a55e 053e 2f21 963d
00000100: 3b23 243e 8d3b 1dbe 228c 043d 0369 a4bd
00000110: 041f 10b9 ef89 2fbe 6230 883d 95d8 f4bd
00000120: 01c1 b6bd 05c2 f63c 742f 20be 6780 30bd
00000130: ec4d a93d 70b5 3d3c cab8 cdbd 7d9a d33b
00000140: 7ad8 833d dab3 963d c4b0 e13c d39c ec3d
00000150: c33d 22bd e884 cb3d aee5 33bd cdf6 c039
00000160: e2dd d1bb 9a81 d43d 6ff5 0f3e 0c3d ccbd
00000170: 049e 2abe 0d53 d9ba c3de 4e3e 7c5a c2bd
00000180: 461c 633d a919 5f3e 73e4 0c3e eedd 173b
00000190: 3a8c f93c 909e dfbc 7bb2 b0bd 5e0f 4a3d
000001a0: ed15 75bd 78a8 aabd 1242 8abd 5a22 97bd
000001b0: 2d39 6b3e b2c7 c8bd 30f8 033e 006f babd
000001c0: 391d b63d b412 5ebd 1b32 b0bd d945 e2bc
000001d0: c961 153e 6052 943d b47b 253e 528f 77bd
000001e0: 2843 0b3e 1746 76bd 9223 af3d bfc1 9bbd
000001f0: 0146 74bb dd8a 083e f04a 093d 1a43 8cbd
00000200: 8ce0 81bd a1f0 843e 0a4e 93bd fdd4 273d
00000210: 5bc2 c13c 5dcc edbd 3c30 013d d0f2 913d
00000220: c0d4 583b b926 a13d 4f99 c4bd e48b c6bd
00000230: e16c 64bd d2c4 a7bc ce66 3a3e 5bd1 29bd
00000240: 75c7 febc 46a0 bebc 9476 02bd 90d3 423d
00000250: 94fa 423e 1ae6 d63d b03b 2abd 21ee 333e
00000260: 9904 1f3d f632 87bd 0a95 01bd 6a2b 133c
00000270: c379 17be 1949 60bd 64d3 02be 9bf6 64bc
00000280: a2c7 e13d 0026 3b3e 1ee2 f83d 9405 b33d
00000290: b8eb 35bd 6044 af3d b1ec febd 0f63 0cbd
000002a0: f29c bebd 6f87 a03d 073d 6a3d 7752 1bbd
000002b0: 77b3 193e b75e a43d 434a 8dbd 36c7 8e3d
000002c0: f634 f2ba 76da 163e 0a18 2b3d f0db 083e
000002d0: 4d1b 303e 3d32 203c b2db 3a3e 719d b8bd
000002e0: 04f6 7a3d 0e16 2e3d 0a43 88bd 3469 153d
000002f0: 3c59 f73d a5a0 cdbd 0721 0d3e dfe5 893d
00000300: da87 07be d036 3f3d a603 c13d 1881 e53d
00000310: c376 1dbd 63e8 ff3d 1f30 8cbd 30dd ff3b
00000320: bb9e 9bbc 33d6 07be b4b0 53bd f1e9 043d
00000330: 40ed 20be 4461 c63d a133 3ebd 705c 95bd
00000340: ef6d 893d a9aa ad3d 513a 95bd 9fd9 78bd
00000350: f11b ebbd 9e39 d4bc edee 803c 559c 8f3b
00000360: 53b0 943d f281 eb3d d0fa 03be d3cb 4738
00000370: 9629 7a3b 8cf8 17be 9c95 83bd f909 993d
00000380: 0dc5 aebc 5ef4 40be 4eaf b73d 47e9 c23d
00000390: 5c9c b3bd 5865 203e c7b9 7e3d dcd0 8d3d
000003a0: 0f2d e8bd 7f6b 00bd 4e2a 43bd c400 823c
000003b0: e96b eebd bb97 aa3d 3ca2 b6bd fdb6 223e
000003c0: 59ef 27bd 1753 72bd bcd9 c33a 60a1 acbd
000003d0: 6bbd 5dbd 84a4 50bc fb76 0a3e 0f5c 613d
000003e0: cd0c debc f956 2f3d cf41 acbd 8e2c 07be
000003f0: de33 b53d 694f 48be 1c7a bebd a749 943d
-0.11205327 -0.032780476 0.010484339 0.019821601 0.017477993 0.12847905 -0.04354458 0.055610277
-0.08415024 0.1320588 0.009069094 0.20544563 -0.05574961 -0.07478033 -0.060691204 -0.07398469
-0.044571504 0.14275223 0.032169554 0.07724204 -0.036764298 0.022180604 0.02994055 0.14510533
-0.009836666 -0.11237129 0.11309718 0.09664793 0.1186096 0.0381653 -0.027970389 -0.033752564
-0.032787204 0.0014331676 0.12550399 -0.06467652 0.0026054734 0.08550632 -0.09809439 -0.08250446
-0.035238538 -0.06707168 0.09678273 -0.0085283285 0.089926675 -0.102214605 0.08940101 0.038059205
-0.059288148 0.06538666 0.08533404 0.18595031 -0.04933155 -0.10029763 0.060780488 -0.06153561
-0.07880189 0.051519066 0.06447261 -0.028051833 -0.05588822 0.113421 0.13024385 0.07330548
0.16029064 -0.15354748 0.032360204 -0.08027842 -0.00013744464 -0.17142461 0.06649853 -0.11955372
-0.08923531 0.030121813 -0.15643102 -0.043091204 0.082668155 0.011578903 -0.10045011 0.0064576254
0.06437774 0.07358523 0.027550109 0.11553349 -0.03960968 0.09937459 -0.04392021 0.00036804975
-0.0064046243 0.10376282 0.14058469 -0.09972581 -0.1666184 -0.0016580537 0.20202164 -0.09489915
0.055446886 0.21787132 0.13759021 0.0023173052 0.030462373 -0.027297288 -0.086277924 0.04933106
-0.059835363 -0.08332914 -0.06750883 -0.07379599 0.2297103 -0.09803714 0.12887645 -0.09103203
0.088922925 -0.054217055 -0.08603307 -0.027621197 0.14588083 0.07242274 0.1616047 -0.060439415
0.13599837 -0.060125437 0.085517064 -0.076053135 -0.003727317 0.13334222 0.03351873 -0.06848736
-0.06341657 0.25964835 -0.07192619 0.040974606 0.023652246 -0.11611245 0.03154014 0.07126391
0.0033085793 0.07868714 -0.09599554 -0.09694651 -0.055767898 -0.020479593 0.1820328 -0.041459423
-0.031100968 -0.023269784 -0.031851366 0.047565043 0.190409 0.10493107 -0.04156083 0.17571308
0.038822744 -0.06601517 -0.031636275 0.008982519 -0.14792542 -0.05475721 -0.12775952 -0.013974811
0.11024405 0.18276215 0.121525034 0.08741298 -0.044414252 0.08557963 -0.12447489 -0.034274157
-0.09307279 0.07838332 0.057187106 -0.03792044 0.15009867 0.08025878 -0.0689893 0.0697159
-0.0018478918 0.14731774 0.041770972 0.1336515 0.17197914 0.009777603 0.1824787 -0.090144046
0.061269775 0.0425015 -0.06653412 0.036477283 0.12077567 -0.10040406 0.1378213 0.067332976
-0.13235417 0.046683133 0.09424524 0.11206263 -0.038443338 0.12495496 -0.06845116 0.00780835
-0.018996587 -0.13265304 -0.05168219 0.032449666 -0.15715504 0.09686521 -0.046435956 -0.07293022
0.06710421 0.084798165 -0.072865136 -0.060754415 -0.11479939 -0.02590638 0.015738929 0.00438265
0.07260194 0.114993945 -0.12888646 4.7635123e-05 0.003817176 -0.14840907 -0.0642502 0.07472605
-0.021334196 -0.18843219 0.089689836 0.0951715 -0.087700576 0.1566366 0.06218889 0.069246024
-0.11336719 -0.031352516 -0.047647767 0.015869506 -0.11641676 0.083297215 -0.089176625 0.15890117
-0.040999744 -0.059161272 0.0014942209 -0.08429217 -0.05413572 -0.012734536 0.1352195 0.055019435
-0.027105713 0.042807553 -0.084109895 -0.1320059 0.088477835 -0.19561543 -0.09300634 0.072406106

sequential_2/conv1d_6/conv1d f4 [128, 1, 3, 64]
00000000: 5380 123e a11c 0d3a 2ea3 583d 3476 5a3d
00000010: 1083 e03d 5b3c d03d d05d a73d 0929 50bd
00000020: bcb5 283e 1f97 d03d 840b 7f3d 4ad2 fe3c
00000030: 580a 443d ee28 443d 64bc 8c3d 5b98 55bd
00000040: a93c 9e3d 822f 2abd 0df3 273e 70c6 f03d
00000050: 4a23 823d c1fa 29bd b531 3d3d ddf7 0c3c
00000060: cf98 193e e6c9 bd3d 378b bb3d 3817 d33c
00000070: d064 f63c 1adc 27bc bb6a b83d cd8f 64bd
00000080: 5390 b83d 8f1b 4cbd b1c6 02bc 4d7e 3c3e
00000090: a396 063e 0cde 66bd f563 e5bc 06c1 863d
000000a0: 376c 96bd 67c5 e83d d74d 76bd 7781 f8bb
000000b0: 81fa 9e3d 2b93 6b3c a6e7 473d 8e8c f73c
000000c0: 8541 5cbd 019f ecbc 426e 2abd 2472 713d
000000d0: 77b3 e7bc b78c 6b3d 3b4f 52bd 2697 363d
000000e0: 38e3 c9bd 6985 84bb ff80 57bc 57d8 363c
000000f0: 6601 09be 1fc2 f7bd 815f e23c ed90 823d
00000100: 8870 2a3d ef8c 703d 1767 833d 0a10 4abd
00000110: 6eb4 003e 7352 8abb 2dee 86bd 3b7a 53bd
00000120: c4af e1bc b57c bebb fb52 8cbd 0396 323d
00000130: b9fc ba3d 2921 32bc a02d af3d 4e21 dcbd
00000140: 0506 cabd 1af1 d5bc 058a a03b cfa7 f1bd
00000150: d192 143d 25b7 93bd 06bb 88bd feb8 123d
00000160: 9557 fd3c c9b6 9e3c 3739 29bd 9e3c 653d
00000170: 4939 adbd c2b4 833c 5836 b5ba f854 383c
00000180: be37 db3d 4aac 13bc 5eaf 533c 00bb cd3d
00000190: 805f 01be 9184 3bbd da78 89bd 06cd a5bd
000001a0: 25ff 16bd bf2a 803d f052 dcbd 96a4 07bd
000001b0: b35c afbd 246a 463c 51b2 b63d 8de3 973b
000001c0: 758b 253d d238 4bbc 799f adbd 83f1 e9bd
000001d0: f788 f1bd e33a 82bd ad0a e03a d7c0 ddbd
000001e0: c762 29be de17 19bd aec1 8fbd 44d8 69bb
000001f0: 3e13 7abc a8df 7fbd 1102 41bd 773a 463d
00000200: 60e4 573d 04ff 063d bbfb b4bd 6962 f83d
00000210: 40a9 033e 8202 1f3d c0d2 37bd 4499 843d
00000220: 7be6 ee3c a80f a53d 4e6b 553d 937f 973d
00000230: 35b6 ecbc 29d8 bebd 5cd7 a1bb 7134 30bb
00000240: 181e 67ba 0fca 1b3d 7459 1e3e 5476 3bbc
00000250: 2333 603d 2fe1 4a3d 2770 833c 037d 74bd
00000260: ef2e 043c bd5b 97bd 7308 fcbd f72a d9bc
00000270: 3efe 493c 43c6 c23a 6458 a8bd e8fb 113d
00000280: 4707 753d 2a92 c5bc bf43 80bd be4b 843d
00000290: 31aa 12bb eae7 23bc 2571 00bc ac6b 13be
000002a0: f1fa 953b 310d ccbd 2a2b 083c 6bb5 b83d
000002b0: ad56 f339 34ba f5bc 7d37 e0bc b2b5 7ebd
000002c0: 0435 333d 0c21 553c ddc2 9b3d f085 9ebd
000002d0: fbe0 90bc 50d3 bfbd 6a87 98bd 5e31 d2bc
000002e0: 89c8 7ebd 0fe0 b03b 2a0b 2abd 65ec 993c
000002f0: 7721 abbd da86 a13c c78c c53d 9e20 793b
00000300: 9bf5 fe3c 3ead efbd ee1b c2bd 6fc4 ce3d
00000310: 85ed 753d f2ce 073d 72e8 89bd ed75 b7bd
00000320: e679 9abd 1cf3 72bd 43a6 243d d034 98bd
00000330: 3a7c 5fbd 9997 953d 75cc a0bc a2d7 813d
00000340: dea6 11bd 2b57 253d 7a01 2f3e 8ace 013d
00000350: aa6e 0cbd 1123 53bd 0582 203d 5c62 e93d
00000360: f8df 133e a40e dc3d e3f8 163e ec7b a3bd
00000370: e5ad 213c 948d 35bb 1ba6 803d a4d5 9cbd
00000380: 56a8 37bd 1386 a53d eefa ff3d 91b2 353d
00000390: 40d4 7ebd c81a 9cbb 720e 91bc 60a4 99bc
000003a0: d771 ffbd 6d5b 143d 1230 dcbd 5a5a 02bd
000003b0: 1dab 8d3d d5da 17be cdc5 5c3c a37d 1a3c
000003c0: cb22 5dbd 330f a7bb 7277 9b3d 6736 eb3b
000003d0: f99f 643c d808 0a3e 3fe8 693d cc20 febd
000003e0: 9ece fdbc dc4c 71bd 9dc7 22be 94c4 db3c
000003f0: c03a c13d 5977 1ebd e7b1 483d 6dc6 853c
0.14306764 0.0005382989 0.052889995 0.053335384 0.10962498 0.10167762 0.0817219 -0.050820384
0.16475576 0.10185074 0.06226684 0.031106133 0.047861427 0.047890596 0.0687187 -0.05214725
0.07726414 -0.041549213 0.1640131 0.11756599 0.06354387 -0.041498903 0.046189982 0.008604017
0.14999698 0.09267025 0.091574125 0.025767908 0.030077368 -0.010245347 0.09004732 -0.0558012
0.09011903 -0.04983097 -0.007981942 0.18407555 0.13143401 -0.056364104 -0.028001765 0.06579785
-0.07344859 0.113657765 -0.060132828 -0.007583793 0.077626236 0.014378349 0.0488049 0.030218389
-0.05377342 -0.028884413 -0.041609056 0.058946744 -0.028283818 0.057507243 -0.05134509 0.04457774
-0.09857792 -0.004044224 -0.013153314 0.011159978 -0.1337944 -0.120975725 0.02763343 0.06375299
0.041611224 0.058728155 0.06416147 -0.049331702 0.12568828 -0.0042212545 -0.06588397 -0.05163024
-0.027549632 -0.005813206 -0.06851765 0.043600094 0.09130234 -0.010872164 0.08553624 -0.1074854
-0.098644294 -0.026115943 0.0048992657 -0.11799585 0.036272828 -0.072126664 -0.06676297 0.035820954
0.030925551 0.019374268 -0.04131433 0.055966012 -0.08458192 0.016077403 -0.00138254 0.011250727
0.10703991 -0.009013245 0.012920229 0.10045433 -0.12634087 -0.045780722 -0.06712504 -0.08095746
-0.03686442 0.06258153 -0.107580066 -0.033115946 -0.08562603 0.012110267 0.0892073 0.0046352805
0.0404162 -0.012403684 -0.084776826 -0.11423018 -0.11793702 -0.06358888 0.0017093025 -0.10827797
-0.16541587 -0.037376277 -0.07019363 -0.0035681883 -0.015263377 -0.062469155 -0.04712111 0.0483956
0.05270803 0.032958046 -0.08837076 0.12128145 0.12857533 0.03882075 -0.04487872 0.064745456
0.029162636 0.08059627 0.052104287 0.0739738 -0.028895477 -0.09318573 -0.004939003 -0.0026886726
-0.0008816435 0.038034495 0.15463811 -0.011441786 0.054736268 0.049531158 0.01604469 -0.059689533
0.0080678305 -0.073905446 -0.12306299 -0.026509745 0.0123286825 0.0014860112 -0.08219984 0.035640627
0.059821393 -0.024117548 -0.062629215 0.06459759 -0.0022379274 -0.010004023 -0.007839476 -0.14396542
0.0045770337 -0.099634536 0.008311072 0.09018978 0.0004641315 -0.029996015 -0.027370209 -0.062184997
0.04375173 0.013008367 0.076055266 -0.0774039 -0.017685404 -0.093664765 -0.07447703 -0.025658306
-0.062202964 0.0053978036 -0.041514553 0.01878948 -0.08355992 0.019717623 0.09645992 0.0038013826
0.031122973 -0.11702965 -0.094779834 0.100960605 0.06004097 0.033156343 -0.067337885 -0.089580394
-0.075427815 -0.05931388 0.040197622 -0.07431948 -0.05456183 0.073043056 -0.019628743 0.06339957
-0.035559528 0.040366333 0.17090407 0.03169111 -0.034285225 -0.051547114 0.039186496 0.11395714
0.14440906 0.1074498 0.1474338 -0.079826206 0.00986812 -0.0027702795 0.06281682 -0.07657936
-0.044838272 0.08082213 0.12499033 0.044359747 -0.062214136 -0.0047639348 -0.017707083 -0.018755138
-0.12472885 0.036220003 -0.10751356 -0.031824447 0.06917403 -0.14829572 0.013474894 0.009429368
-0.05398826 -0.0050982474 0.07591142 0.007178116 0.013954156 0.13479936 0.057106253 -0.12408599
-0.030982312 -0.05891119 -0.15896459 0.026827134 0.09435034 -0.038688038 0.048997786 0.016329968

sequential_2/lstm_2/while/lstm_cell/MatMul_7 f4 [128, 128]
00000000: 482a a5bc 9b0b 05bd dfc7 81bc ef82 f73c
00000010: b366 ff3d 904d c33d 66b3 27bc 3e2e 01bd
00000020: 9f73 a2bd 8f62 aabd c1b9 893c 12c2 1d3e
00000030: 308a 763d f32f 3e3e 9d0b 683d 5fa7 1fbc
00000040: fce9 993d ab14 e7bc d723 103e d47d 9d3b
00000050: ca01 efbc 8535 79bd 0582 95bd 463d ad3d
00000060: 0357 36bb 47be 99bd bdd7 6a3d 58c6 1b3e
00000070: 3daf 8c3d 2e6a 25bd 367d f0bd d469 873d
00000080: 2b8e fdbb e9c7 c73c 89a4 24be d260 86ba
00000090: 38da 823c c330 aa3b c0e3 a8bd 09e3 a23d
000000a0: 4092 30be d9ee 68bd 3d86 1ebd 9e2d e7bd
000000b0: e8c0 1eba 9e18 673d 9e62 bc3d a179 c73c
000000c0: 7425 3ebd bd3e 5bbd 7e3a 39bd 7de4 203c
000000d0: ace1 843d a62d 13bd 397c 8b3d eaf5 6bbb
000000e0: 36b4 8b3c eb39 fd3a d309 5dbd c062 eb3d
000000f0: ffca 943c e6f3 d0bc ac0d 213d e170 e43d
00000100: 61df a83c af34 87bd cd5d c0bc 6895 0b3d
00000110: 80b2 12bd 271c 48bd 90ce b33d ae19 06bd
00000120: cc1d e53d af04 863d 1d5e af3d 5d41 dabc
00000130: e2a2 d6bd 93ff 4c3d 7717 f8bd 0c2b eebc
00000140: a32e f13d ef9c 28bd 91cb 783d 0c86 e4bc
00000150: 0ecc 6cbd 14bf d63c 77ba c2b9 3b80 8b3d
00000160: 69b8 72bd c5c7 983d bed3 02be 991b 96bd
00000170: ce46 143d 8d00 4f3d 6e19 d03d 9c79 983c
00000180: e66a 7bbc 133e 933d 5aca 90bd 20dd 28bd
00000190: 17bf 8bbb df85 eb3d 2e5b a0bd a73e 4dbc
000001a0: 0e26 533d c0bc 2e3d 0fa0 6c3d 8338 a539
000001b0: 4acc 9abd 6b27 0abc 9a63 bfbd feb0 653d
000001c0: b251 253d d9b8 a03c a4b8 b5bd 933e 94b8
000001d0: 1ad5 983d c9ff 643d 57b6 073d 64f7 2d3d
000001e0: fc93 2b3e 5474 123e 14fd 1f3c a669 5abc
000001f0: cf9f 9f3d 2a2d 553d 4209 97bd 905f 0d3c
00000200: 0cb1 6abd d335 e1bb 9e15 9a3d 7651 5abd
00000210: 6239 c23d 247d 3c3d 369d 733d fe4b 023d
00000220: d162 97bd bf73 28bd f04e c1bd bd63 c43d
00000230: 7ba3 fb3b a783 993d 40c8 303d 7869 42bc
00000240: 8b82 d23d bba0 b6bc 969f 9c3d 1698 06bc
00000250: 04d2 b93d aec7 413d fe29 db3c dd04 f3bc
00000260: 490b 4dbd 4a0e b9bd 2f42 113e d41a 243d
00000270: 13cf 80ba 73a5 283c 6e3d 5d3d b789 a23d
00000280: 8f46 d2bd 9e52 07bb d831 f6bd 75f4 9e3c
00000290: db42 aebb ced0 c9bc aa25 04bc c916 a93d
000002a0: ed47 cd3d 1e15 acbd 1cc7 9dbd 8b34 1dbc
000002b0: ce06 8b3d bf18 babc 1143 233c 3250 aab9
000002c0: fc84 a0bd 11e2 483d 68d5 81bc a015 e5bd
000002d0: d30e 91bc 2ea1 afbd 52ea 8f3d 02bd 9cbd
000002e0: 87cc 43bc 1587 9abc 4f06 613d d665 95bd
000002f0: d00f 0a3d 4d47 783c c2dc b2bd 6593 0c3d
00000300: b037 873d cf8b f63b 00c3 12be 0920 623d
00000310: a50c 64bd adfa e13b 1ef8 323d fdef 783d
00000320: 2197 b43c 919b 873d cf06 e23c 77f3 49bd
00000330: e7db a3bd a879 153c 8d82 dabd 5297 7fbd
00000340: 8167 02bd 5932 e73a 9a7a bc3d 7891 a4bc
00000350: ecbd 0fbc a98d 29bc 6ea7 2dbc a9e0 25bd
00000360: 62e3 913c 7954 293e 024e a0bb 89a3 e2bc
00000370: 5387 053e 112d 32be cffe f63d 72dc 5fbd
00000380: 5a2a 22bb 6bb9 01bd c1d8 b03b f486 c33d
00000390: a213 d13d 37f3 76be b872 8abd 6ebe 193d
000003a0: cf6f 55bc 9077 84bd c00c 0f3d bb42 41be
000003b0: bb87 363d 39bf 8fbb f2e6 003c 7280 1a3d
000003c0: 7674 21bd de31 e0bc 3a39 eebd c2de 3abd
000003d0: 1ba8 5b3d e8da f73c 13c8 b03b c2d3 8c3d
000003e0: c94e 06bd fe46 bd3d c8e4 1bbd bbe3 0a3c
000003f0: 7577 193e 0c25 90ba 1808 7fbd d5d1 1c3d
-0.020161763 -0.03248177 -0.015842376 0.030213801 0.1247076 0.09536278 -0.010235643 -0.03153824
-0.07932209 -0.0831958 0.016812207 0.15406063 0.06019038 0.18572979 0.0566517 -0.009744494
0.07515332 -0.028208097 0.14076172 0.0048062596 -0.029175658 -0.060842056 -0.0730019 0.084589526
-0.002782286 -0.07506996 0.05733465 0.15212381 0.068693615 -0.040384464 -0.11742632 0.06611982
-0.007737895 0.024387317 -0.1607839 -0.0010252243 0.015973195 0.005193801 -0.08246565 0.0795346
-0.1724329 -0.056868408 -0.03870224 -0.11287998 -0.0006055967 0.05641996 0.09198497 0.02434999
-0.046422437 -0.05352663 -0.045221798 0.009820101 0.06488356 -0.035932206 0.06810803 -0.003600473
0.017053705 0.0019319629 -0.053964447 0.114934444 0.018163202 -0.025506925 0.03931968 0.111543424
0.020614328 -0.066018455 -0.023482228 0.03407803 -0.035814762 -0.048854973 0.08779633 -0.032739334
0.11187324 0.06543862 0.085628726 -0.026642496 -0.10480286 0.050048422 -0.121138506 -0.02907326
0.117764734 -0.04116529 0.06074101 -0.02789595 -0.05781179 0.02621416 -0.0003714149 0.068115674
-0.0592579 0.07459978 -0.12776086 -0.073294826 0.036200337 0.050537635 0.101611 0.018612675
-0.015345311 0.07189574 -0.070698455 -0.041226506 -0.004264723 0.11500143 -0.07829891 -0.0125271445
0.051549964 0.042660475 0.05776983 0.00031513357 -0.07558496 -0.00843225 -0.09345169 0.056076996
0.040361114 0.019619392 -0.08873108 -7.068845e-05 0.07462521 0.055908 0.033132877 0.04247226
0.1675567 0.14302188 0.009764928 -0.013330853 0.07794153 0.052045025 -0.07374813 0.008628741
-0.05729775 -0.0068728714 0.075236544 -0.053300343 0.09483601 0.04601778 0.0594761 0.031810753
-0.073918946 -0.04112601 -0.09438884 0.09589336 0.0076794005 0.07495814 0.043159723 -0.011865966
0.10278805 -0.02229344 0.07647626 -0.008214971 0.090732604 0.04730957 0.026753422 -0.029665405
-0.05005959 -0.090359285 0.14185403 0.040064648 -0.0009827338 0.010293352 0.054013662 0.07936423
-0.10267364 -0.002064861 -0.12021226 0.019403676 -0.0053180284 -0.024635699 -0.00806562 0.08256299
0.100234844 -0.08402465 -0.07703993 -0.009595047 0.06788407 -0.022716878 0.00996472 -0.00032484677
-0.07837865 0.04904372 -0.01584883 -0.11185765 -0.017707264 -0.085756645 0.07027115 -0.07653238
-0.011950619 -0.01886324 0.054937657 -0.07294814 0.033706486 0.015153718 -0.087335125 0.034320254
0.066024184 0.0075239907 -0.14332199 0.055206332 -0.05567612 0.006896338 0.043693654 0.060775746
0.02204472 0.06621469 0.027591137 -0.04930445 -0.080009274 0.009123243 -0.10669432 -0.06240017
-0.03183699 0.0017638906 0.09203072 -0.020088896 -0.008773308 -0.010348716 -0.010599 -0.040497456
0.01780862 0.1653613 -0.0048921118 -0.02766587 0.13039903 -0.17400004 0.1206032 -0.054653592
-0.0024744482 -0.03167097 0.005396933 0.09547225 0.10208823 -0.24116217 -0.06760162 0.037535124
-0.0130271455 -0.06468117 0.03492427 -0.18873112 0.044563036 -0.004386809 0.007867562 0.03772015
-0.039417706 -0.027367529 -0.11632009 -0.045622595 0.053627115 0.03025575 0.0053949445 0.06876327
-0.03278998 0.09242056 -0.03805998 0.008477147 0.14986975 -0.0010997369 -0.06226358 0.03828605
